GRU_trained_baseline.pt (torch, 806071 bytes, 6 tensors)

gru.weight_ih_l0 f4 [768, 3]
000000 80 4c f5 bc 08 d8 97 3c 50 b4 50 3d 8b a0 de 3c
       -0.029943705 0.018535629 0.05095321 0.027176162
000010 06 70 a7 bd 30 44 21 3c 0c b8 61 bd 2c f9 7a 3d
       -0.08175664 0.009842917 -0.05510716 0.061272785
000020 d8 de 24 3d a4 5f 7f 3d 24 10 53 3d b0 95 43 3d
       0.040251583 0.06234707 0.051529065 0.047750175
000030 6e 13 e4 3d 38 84 9b 3d d7 fa 6a 3b 60 93 b7 bc
       0.111365184 0.07593578 0.0035855079 -0.022409141
000040 ba fc 77 3d f0 2e 82 3b 98 7c d6 3c 26 52 ce 3d
       0.060543753 0.0039728805 0.026182458 0.10074262
000050 b0 43 2d 3d 94 a3 64 3d 2e fa 84 be 0e 6a 38 bc
       0.04230088 0.055820063 -0.25972122 -0.011255754
000060 51 10 31 bc a1 25 91 3d 9c bf 04 3d d7 0e f3 3d
       -0.010807113 0.07087255 0.032409295 0.11868065
000070 b0 d5 91 3b af ca 24 3d f5 69 75 3d a0 49 dd 3d
       0.0044505224 0.040232357 0.0599155 0.108050585
000080 b7 c4 4a 3c 11 3e 68 bd 23 fa 8e bd 00 02 8b bd
       0.012376002 -0.056699816 -0.069813035 -0.06787491
000090 44 7a f0 bd 9b db 37 bd 48 c2 dd bd da e9 63 3d
       -0.1174207 -0.044887166 -0.10828072 0.05564294
0000a0 98 17 8e 3d 03 36 90 3c 21 73 43 3d aa 87 04 be
       0.06938094 0.01760388 0.047717217 -0.12942377
0000b0 b8 01 cc bc e5 05 c6 3d 6d 20 a8 3b 9c cb 33 bd
       -0.024903163 0.09669093 0.0051308186 -0.04389535
0000c0 b1 99 73 3d e8 dc 2b 3d f1 c9 9a b9 5f 53 8f bd
       0.059472743 0.04195872 -0.00029523627 -0.06998324
0000d0 e7 cc 93 bd e8 f0 f0 3c 0c 72 22 bd 3e 69 9a 3d
       -0.072168164 0.029411748 -0.039659545 0.075396046
0000e0 58 29 2e 3c 8c dc 8a bd 15 a9 74 bd 52 66 67 bd
       0.010629974 -0.06780347 -0.05973156 -0.056494065
0000f0 5a 04 48 bd 7f 41 e7 3d 1e df 25 3d ad eb 03 3d
       -0.048832275 0.11291789 0.040495984 0.03220718
000100 c5 82 eb 3d ad cb 22 3c 27 f0 e5 3d 97 f2 d4 3d
       0.11499552 0.009936255 0.11227446 0.10397833
000110 80 79 77 ba d7 06 03 bd 9c 0e db bc c6 b8 56 bd
       -0.0009440407 -0.031988945 -0.026740365 -0.052422307
000120 69 96 b8 3d 62 f8 0a 3d d9 55 a4 3d 7c 33 ee 3c
       0.090130635 0.033928283 0.08024187 0.029077284
000130 02 51 0c bd d6 68 58 3d b4 52 f4 bc 74 01 4d 3d
       -0.034256943 0.052834354 -0.029824592 0.050050214
000140 22 92 17 bd 1f 96 78 3d da e6 8b bc 80 b0 4c 3b
       -0.037004597 0.06069004 -0.017077852 0.0031233132
000150 7b 5a a8 3d 8a ce 0f 3e 74 aa 06 3c 8f 6e 48 3d
       0.08220383 0.14043632 0.00821935 0.048933562
000160 18 d6 bf 3d ea 0a 6b 3d 26 df 84 bc 53 a3 bf 3d
       0.09367007 0.057383455 -0.016219687 0.093573235
000170 39 26 4f bb 11 3f 32 bd 68 0a 89 bd 00 32 21 bd
       -0.0031608476 -0.043517176 -0.06691438 -0.039354324
000180 1f 0d b7 3c ef 11 d9 3d ba e0 69 3d 13 d4 26 3d
       0.022345124 0.10599124 0.05709908 0.040729593
000190 de a6 ed 3d 5a f7 a4 bc 46 73 ac bc 45 2b 86 bd
       0.11604093 -0.020137478 -0.02105106 -0.06551222
0001a0 62 a1 22 bd c3 82 5d bd 24 47 c4 3d 6f 49 41 bd
       -0.039704688 -0.054079782 0.095838815 -0.047189172
0001b0 9c 82 b2 3d 32 93 d2 3d 7c 00 fe bc a3 ae 5d bd
       0.08716318 0.102819815 -0.03100609 -0.054121625
0001c0 03 50 78 bd b9 85 bf 3c 45 ca 05 bd 77 50 9e 3c
       -0.06062318 0.023379194 -0.032663602 0.019325478
0001d0 00 8f a7 3a 3f a0 ba 3d 02 4b 9d 3d 3c d8 0d bc
       0.0012783706 0.09112596 0.07680322 -0.008657511
0001e0 0c b6 6f 3d 6f bf 56 3d f0 06 f0 3b 98 76 ef 3d
       0.058523223 0.05242866 0.0073250458 0.11692542
0001f0 10 69 07 3e 22 50 1f bd 55 1f ff bd 45 3a 7d 3e
       0.13223672 -0.03889478 -0.12457148 0.2472926
000200 9a 5a 4b bd aa 3c 07 3e 26 c7 df 3d 16 4c 2c bd
       -0.04964695 0.13206735 0.109266564 -0.04206475
000210 9c 36 a7 bd 39 8c d7 3b 10 35 22 bd 1c 3b 87 3d
       -0.08164713 0.006577995 -0.039601386 0.06603071
000220 ef 89 6f 3d 94 bd 93 3d 34 f2 4b 3d 78 b5 54 bc
       0.058481153 0.072138935 0.04979153 -0.012982719
000230 a0 0d 0b 3c 32 9e b2 3d d6 a6 74 3d 70 79 16 3d
       0.008487135 0.087215796 0.05972942 0.036736906
000240 37 aa ad 3d 38 6b 33 3d d4 1b 9e 3c 2d 32 30 bd
       0.084797315 0.043803424 0.019300379 -0.0430166
000250 4d 25 7f bd 44 5b 63 3d 76 db d5 bd 3a ca 0d be
       -0.062291432 0.05550696 -0.104422495 -0.13846675
000260 ac a8 0c bd 2a b2 09 bc 47 5e fa bc 69 3f 96 3c
       -0.034340546 -0.008404294 -0.030562533 0.018340783
000270 2f cf 6d 3d 1a 66 90 3d 96 a8 53 3d cd e6 bf 3d
       0.058058914 0.07050724 0.051674448 0.09370194
000280 e9 67 23 be 46 0b b8 3c f4 ef 86 bd 8c 10 da bd
       -0.15957607 0.022466313 -0.06588736 -0.10647687
000290 7a fb 1b 3c 79 d0 43 3d 56 87 86 bd f0 f7 20 3d
       0.009520406 0.047806237 -0.06568782 0.03929895
0002a0 fa 34 83 3d f8 92 88 3d d8 47 0e bd 44 15 cb 3c
       0.06406589 0.06668657 -0.034736484 0.024790414
0002b0 9e 37 59 3d 38 03 e4 3c c8 00 c4 bc fa e4 3e bd
       0.053031556 0.027833566 -0.023926154 -0.046605088
0002c0 7a 5c 6d bd 3b 08 e8 3d 68 59 9d 3d e8 16 7f bd
       -0.05794952 0.11329695 0.076830685 -0.062277704
0002d0 38 a0 1b bd 21 00 11 bd cc e4 e6 3c ca 0b 99 bd
       -0.037994593 -0.035400514 0.02818527 -0.07472952
0002e0 e1 92 c3 bd 70 2f 7b bd 1c 8d 01 3e a6 7d 3d 3d
       -0.09549499 -0.061324537 0.12651485 0.046262406
0002f0 e3 7b 20 3c 6d ef 29 bd 18 b9 e8 bc 97 fb cd 3c
       0.009795162 -0.0414881 -0.028408572 0.025144381
000300 ae 37 00 3e 2a b0 a3 3d e0 8d 12 3c 3c 5d eb bd
       0.1252124 0.07992585 0.008944958 -0.114923924
000310 d3 9a b1 bd c0 3c 2d bd d7 e5 b8 bd d2 30 31 bd
       -0.086721085 -0.042294264 -0.090282135 -0.04325945
000320 d0 66 45 3d 2c c5 da 3d 86 f0 af 3d 8c 0f ad 3c
       0.048193753 0.10682139 0.08590798 0.021125577
000330 ad 3f ba 3d ab af de 3d 78 4e 36 3c 0b 07 c5 bd
       0.090941764 0.1087335 0.011127107 -0.09620484
000340 50 8b aa bd a8 ec 1b bd 38 17 c4 bc dc 5c 63 bd
       -0.08327353 -0.03806749 -0.023936853 -0.05550848
000350 04 d6 db 3c 86 44 a4 bd 73 0d 88 bd b9 41 79 3d
       0.026835449 -0.08020882 -0.0664319 0.060853694
000360 52 c1 76 3d 13 e6 ed 3b 88 ef 28 3d ae 49 b6 bb
       0.06024296 0.007260093 0.04124406 -0.0055629825
000370 30 3a 4b 3d b5 36 55 3d 45 fb be bd 8b c7 ca bc
       0.04961604 0.052054126 -0.093252696 -0.024753353
000380 38 18 7f 3d f9 a4 00 bd 30 ee db bd 38 e9 d1 bb
       0.062278956 -0.03140733 -0.1073879 -0.0064059757
000390 28 62 88 3d e8 6b ab 3d 27 5b 5b 3d 4e 31 1b 3d
       0.06659347 0.08370191 0.053553727 0.037888817
0003a0 a9 37 09 3d 18 4c ed bc 5f 61 d4 3d 88 03 35 3d
       0.033500347 -0.028966948 0.103701346 0.04419282
0003b0 57 31 61 bd 99 44 c6 3d 9c 27 a4 3d 80 34 40 3c
       -0.054978695 0.09681053 0.080153674 0.011731267
0003c0 83 16 ba 3d 20 a6 1f 3c 61 5e 4d bd 0a e0 e1 3c
       0.09086325 0.009744197 -0.050138835 0.02757265
0003d0 3b 66 74 3d 78 59 4f 3d ff 9a 08 3c c7 86 7c 3d
       0.059667807 0.050622433 0.008337735 0.06165197
0003e0 e7 b3 10 bd d2 f0 5e 3d 5c b8 2f 3d a4 91 37 bd
       -0.03532782 0.054428883 0.04290043 -0.044816628
0003f0 e7 ec 13 3d 7f 85 0a 3e 1f 24 71 3d ff 10 67 3d
       0.0361146 0.13527487 0.05887234 0.056412693

gru.weight_hh_l0 f4 [768, 256]
000000 b0 b9 6a 3d 58 99 26 bd 34 f9 df bc 00 e2 cb 3c
       0.05730599 -0.040673584 -0.027340509 0.024888039
000010 be 99 72 3d 50 1b c2 3b 20 c1 b5 bc f8 57 a2 bc
       0.05922865 0.005923666 -0.022186816 -0.019817337
000020 a4 83 4a bd 94 05 32 3d 50 c0 a5 bb 08 13 fb bc
       -0.04944195 0.04346235 -0.005058326 -0.030648723
000030 9a ab 44 3d f4 dd ac 3c 0a ab 18 3d d4 38 f3 3c
       0.048015215 0.02110193 0.03727249 0.029690184
000040 5c 6b 88 bc 28 ad ec 3c 02 24 2c 3d e0 26 64 bc
       -0.016652755 0.028891161 0.042026527 -0.013925284
000050 44 66 d5 bc 84 e6 3e bd 70 14 97 3b 5c 11 04 3d
       -0.02604974 -0.046606556 0.0046105906 0.032243118
000060 c0 7c 77 3d 60 e5 19 bc a0 cb cc bb 30 27 5c bc
       0.060421705 -0.009393066 -0.00624986 -0.013437077
000070 be c3 7d 3d 06 4f 64 3d 8c 66 74 bd 40 df 89 bc
       0.061954252 0.055739425 -0.05966811 -0.016830087
000080 f0 ca 64 bc 48 59 16 3d 74 f5 57 3d 50 57 2f 3c
       -0.0139644 0.03670624 0.052724317 0.010701969
000090 18 9e 1a bd f8 2c 6f bd 6c 60 b9 bc 40 80 c9 3c
       -0.037748426 -0.058392495 -0.022628985 0.024597287
0000a0 dc 2d bd 3c 5e 55 1d bd 94 b1 ce bc f0 ec 72 bd
       0.023093157 -0.03841149 -0.02523116 -0.059307992
0000b0 c8 70 06 3d 4c d4 11 3d 52 16 26 bd 34 24 92 3c
       0.0328224 0.035602853 -0.04054863 0.017839529
0000c0 90 1f 78 3c 8c e8 7a bd 26 2f 64 bd 1c 67 d0 bc
       0.015144244 -0.06125693 -0.055709027 -0.025439791
0000d0 38 ff 0e bc c8 38 4a bc 10 5a c1 3b a0 77 f5 bb
       -0.008727841 -0.012342639 0.005900629 -0.007491067
0000e0 86 bd 6b bd 88 6d 56 3d 70 18 a4 3c 74 8c 22 bd
       -0.05755379 0.05235055 0.020031184 -0.039684728
0000f0 30 bf 52 3c 94 90 c2 3c 78 6f 0b 3c 92 3e 18 bd
       0.012862965 0.02375058 0.008510463 -0.037169047
000100 00 59 af 3a 40 a8 51 bb c8 37 ba bc bc 4f ff bc
       0.0013377964 -0.0031991154 -0.022731677 -0.03116595
000110 04 b0 1d 3d 2a 25 0f 3d 7a 7e 7d bd 2e 83 24 3d
       0.03849794 0.03494755 -0.061888196 0.040164165
000120 b8 84 75 bc 7c 8f 62 3d ec b3 0b bd d8 91 b8 bc
       -0.014985256 0.05531262 -0.034107134 -0.022530481
000130 38 07 7e bd 74 19 01 3d 7c b5 c4 bc 50 b4 3d 3d
       -0.062018603 0.031518415 -0.02401232 0.046314538
000140 50 ab d6 3b 58 b1 27 3c ba ab 20 3d 08 5a dd 3c
       0.0065511838 0.010235153 0.03922627 0.02702047
000150 2e b3 09 3d dc 37 b8 bc c0 ee 4b 3b 82 7d 0c 3d
       0.033618145 -0.022487573 0.0031117648 0.03429938
000160 c0 72 a7 bb e0 41 4c 3b ec 1f d6 3c 68 94 4a 3d
       -0.005110115 0.0031167194 0.026138268 0.049457937
000170 40 a0 62 bd 68 42 10 3d d8 54 16 3d b2 92 03 3d
       -0.055328608 0.03521958 0.036702007 0.03212232
000180 88 3b 0f bc 20 56 f4 3b 8a ee 0d 3d 48 c0 b3 3c
       -0.008742221 0.007456556 0.034651317 0.021942273
000190 80 56 13 bb a0 c8 f2 bb c2 32 58 bd 2e 29 06 3d
       -0.0022481978 -0.0074091703 -0.05278278 0.032754116
0001a0 58 db 5a bc 08 9c da 3c f2 71 78 bd 00 e7 e1 ba
       -0.01335796 0.02668573 -0.06065554 -0.0017234981
0001b0 1a 47 5b bd fa dd 45 3d d0 2e ef 3b a8 2e db bc
       -0.053534605 0.048307396 0.0072992817 -0.026755646
0001c0 34 a8 70 bd d4 b3 ad 3c f4 e4 df bc 9e fc 29 bd
       -0.05875416 0.021203913 -0.027330853 -0.04150068
0001d0 68 d1 44 bc a4 3a 06 3d 9e 40 1c bd 22 c0 6f 3d
       -0.012012817 0.032770768 -0.03814756 0.05853284
0001e0 14 98 95 bc 36 9e 30 bd 38 e3 12 3d 34 7e 85 3c
       -0.018260993 -0.04311963 0.035861224 0.01629553
0001f0 f0 9c 2d 3c 62 b4 3a bd d8 fc d4 3c 20 bd 54 3c
       0.010596499 -0.045582183 0.025999472 0.012984544
000200 40 ac 83 3c 00 6c e9 39 64 d0 5b 3d e8 96 23 bd
       0.016073346 0.0004452169 0.053665534 -0.039938837
000210 e6 0e 1c bd c8 99 ea bc ce 2b 72 3d 58 e2 a2 3c
       -0.038100146 -0.028637782 0.059123807 0.01988332
000220 20 b7 6e 3c d8 55 77 bd 44 4f 24 3d 06 0f 21 bd
       0.014570028 -0.0603846 0.040114656 -0.039320968
000230 ac b7 17 bd 1e 1d 52 3d 0c e0 05 bd a0 da 52 3d
       -0.037040398 0.0512973 -0.03268437 0.05147803
000240 cc 15 0b bd a4 5a 96 bc b4 35 44 bd 96 60 5c bd
       -0.033956334 -0.018353768 -0.047902778 -0.05380305
000250 04 1a 24 3d 80 3d 49 bb a0 ac 0d 3d 4c bd ca bc
       0.040063873 -0.0030706823 0.034588456 -0.024748467
000260 64 e1 59 3d 1c 70 09 3d 94 43 6d 3d aa 17 55 bd
       0.053193465 0.03355418 0.057925776 -0.05202452
000270 3c 7d dc 3c fc 6d dd bc c6 84 62 bd 76 ad 05 3d
       0.026915185 -0.027029984 -0.055302404 0.03263613
000280 1c e8 cc 3c 2c 7d 1b 3d 00 47 41 3d 9e 20 0f 3d
       0.025013022 0.03796117 0.04718685 0.034943216
000290 cc 19 08 bd 26 c2 74 bd fc 9a 94 bc d0 de f0 bb
       -0.033227727 -0.059755467 -0.018140309 -0.00735078
0002a0 a0 b6 60 3b b2 b7 5d bd c2 cb 04 3d 8c b3 82 3c
       0.003428854 -0.054130264 0.03242088 0.015954755
0002b0 b8 cd fd 3c c0 c2 34 bb f4 21 35 bd 54 34 b0 3c
       0.030981883 -0.00275819 -0.044221833 0.021509327
0002c0 28 4d 58 bd 0c b1 84 bc cc a6 b7 3c 9a 96 3d 3d
       -0.052807957 -0.016197704 0.022418402 0.046286203
0002d0 7c 1a 02 3d 90 26 4c bc c0 0f 4a 3c 18 06 d6 3c
       0.03176354 -0.012460366 0.012332857 0.026125953
0002e0 ce 5d 3f bd 18 53 c4 bc 80 f9 da 3b b8 10 2b 3d
       -0.04672032 -0.023965403 0.0066825747 0.04176399
0002f0 a0 22 4d 3d e0 00 86 bc 74 b1 8a 3c 38 35 8e bc
       0.05008185 -0.01635784 0.01693032 -0.017359361
000300 98 e4 66 bd cc fe 96 3c 4c a5 04 3d 4c 8f 41 bd
       -0.056370348 0.018432043 0.032384202 -0.0472558
000310 80 cc a7 3a 60 17 3f 3b 2e cf 2b 3d dc 20 42 3d
       0.0012802035 0.002915822 0.04194563 0.04739462
000320 e0 0f 8c 3b 96 4d 7a bd 52 df 21 3d 86 c6 6b 3d
       0.0042743534 -0.061109148 0.039519615 0.057562374
000330 a4 ca 48 3d e4 0a 1a 3d 7e 4f 62 3d 64 ea 5f bd
       0.04902138 0.037608042 0.05525159 -0.05466689
000340 00 83 37 bd b6 58 29 3d 7c 4c cf bc c0 c6 96 3b
       -0.044802666 0.041344367 -0.025305025 0.0046013296
000350 e0 e0 88 3b 00 53 09 3c 34 df 0f 3d 80 f9 02 3c
       0.004177198 0.008381605 0.035124972 0.007994056
000360 58 8f f0 3c c0 dc 32 3c 68 f9 e0 bc d8 be 65 bc
       0.029365227 0.010916889 -0.027462676 -0.0140225515
000370 08 91 74 3d b4 a0 02 3d 18 31 3e bc 8a 1f 70 bd
       0.059708625 0.03189154 -0.011608385 -0.058623828
000380 d0 32 79 bd 70 47 80 bb 74 84 6f bd d0 06 94 3b
       -0.060839474 -0.003914766 -0.058475927 0.0045174137
000390 e6 38 5f bd c0 1e c8 ba f6 c4 16 3d 48 69 5d bc
       -0.054497622 -0.0015267953 0.03680893 -0.013513871
0003a0 fa fd 17 3d 5c dc b9 bc 24 ef a5 bc cc f2 e7 3c
       0.037107445 -0.022688083 -0.020255633 0.028314017
0003b0 b4 a2 ad bc 64 c3 1f 3d 3e d7 42 bd b0 96 11 3d
       -0.021195747 0.0390047 -0.047568552 0.035544097
0003c0 ce 38 67 bd c8 f2 4d 3c 58 e7 a6 bc ac 9f 55 bd
       -0.056450658 0.012570091 -0.020373985 -0.052154228
0003d0 f0 45 0f bd 30 f7 fc 3b 20 f6 96 3b a8 e9 b1 3c
       -0.034978807 0.0077198967 0.004606977 0.021717861
0003e0 e8 25 0c bc 70 5c 29 bd 40 18 fd bc 26 4f 25 bd
       -0.008553959 -0.04134792 -0.030895352 -0.040358685
0003f0 dc 8c ac 3c 48 69 64 3d 9e 11 0e bd 3c ff 7f bd
       0.02106326 0.055764467 -0.03468477 -0.06249927

gru.bias_ih_l0 f4 [768]
000000 74 e3 8a bc b2 df aa 3b 92 b5 66 bd b0 d8 6d 3c
       -0.016954161 0.005214655 -0.056325503 0.014516994
000010 0b b5 8d 3d 3c 62 93 3d a8 81 eb 3d 60 b9 5a bd
       0.06919297 0.07196471 0.11499339 -0.053399444
000020 e3 a6 e6 3d bc f4 88 3d dd 37 18 3d 4a 18 e8 bd
       0.112623 0.066873044 0.03716265 -0.11332758
000030 11 a5 15 be be 3d ac 3b 2c c4 ec 3d d2 6c 58 bc
       -0.14613749 0.0052563837 0.11560854 -0.0132095385
000040 77 39 be 3d a1 c4 53 bb 88 f7 0c 3e ff a5 7e 3d
       0.09288304 -0.0032313245 0.137663 0.062170025
000050 c1 f4 df bd 5c 20 e6 3d 30 6f ca 3c eb 29 d0 3c
       -0.10935355 0.11236641 0.024711221 0.025410613
000060 96 47 a8 3d d4 f4 ee bc a4 bb 65 3d db e1 a2 3d
       0.08216779 -0.029169478 0.05608715 0.07953235
000070 1d 7a 85 3d 3f 25 1b 3e 33 9e c2 3d 18 74 11 bd
       0.06517432 0.15150927 0.0950283 -0.035511106
000080 8e c8 c3 3d 24 36 5a 3c df fa a7 3b e6 fe 99 3d
       0.09559737 0.013318572 0.0051263417 0.07519321
000090 81 c7 dc 3d 75 ab 4d bd e9 75 1e bd a4 63 94 3c
       0.1078024 -0.050212342 -0.038686667 0.018113919
0000a0 c9 94 20 bd e0 99 d8 3d 8e 18 5e 3e b5 20 25 3d
       -0.039204393 0.10576224 0.21689054 0.040314395
0000b0 c4 58 9b bd 7e 5f a4 3c 8e 9f 60 3d 56 e9 00 3d
       -0.0758529 0.020065065 0.054839663 0.031472526
0000c0 9d e7 80 3d 91 60 f5 bc f4 b3 d5 bd a9 e2 1f 3b
       0.06294177 -0.029953273 -0.10434714 0.0024396575
0000d0 45 43 78 3c e8 e6 59 3d 33 7d 6b bd a3 1d 99 bd
       0.015152757 0.053198725 -0.057492446 -0.07476356
0000e0 6f f1 71 3c 58 18 a9 3d 3b f1 9b bd eb 93 16 3c
       0.014767035 0.08256596 -0.076143704 0.00919054
0000f0 3d 88 cf bc ad 68 4f bd 5a 74 88 3d 48 89 53 3c
       -0.025333518 -0.050636936 0.06662817 0.012911148
000100 08 c3 0c 3d e1 c6 4f bd 0a 86 82 bd 90 aa c8 3d
       0.034365684 -0.050726775 -0.06373222 0.09798157
000110 fc c3 78 3d ea 6d 1a bd 78 dd 1f bd 09 8d 15 3c
       0.06073378 -0.03770248 -0.03902957 0.009127864
000120 bd 7b 0c 3d 72 40 f3 3d 20 be 08 3d 21 d9 8b bd
       0.034297694 0.11877526 0.033384442 -0.068285234
000130 76 95 99 3d 12 5e 96 3c 25 d2 13 3e dc 0f 5f 3c
       0.074992105 0.018355403 0.14435633 0.013614621
000140 47 e0 92 bc 9a cc 77 3d 29 2f d0 3d e4 a5 23 bd
       -0.01792921 0.060497858 0.10165245 -0.039953128
000150 40 a0 ba 3d 76 ed 91 3c 5d 7c 7c 3d 25 44 82 bd
       0.091125965 0.017813426 0.06164204 -0.06360654
000160 9a 16 d6 bc 70 a5 9e bd 8f 6d 0b be 38 1f 85 bc
       -0.026133824 -0.077463984 -0.13616012 -0.016250238
000170 90 ec 4a 3a 62 a5 a8 3d 45 3b 00 3e 00 26 0f 3c
       0.0007740939 0.08234669 0.1252261 0.008737087
000180 b3 80 e5 bd 30 aa ed bc 42 f5 ae 3d 5c 42 57 3d
       -0.11206188 -0.029011816 0.08542873 0.05255352
000190 40 57 e0 bc 34 be 86 3d ef 06 9d bd cc 4a e8 3d
       -0.027385354 0.06579247 -0.07667338 0.11342391
0001a0 db 89 fd 3d 68 01 cf 3d 9f 6e 75 bc 9d 20 5f 3d
       0.123798095 0.1010769 -0.014979987 0.05447446
0001b0 14 f3 80 3d ed 95 a7 bc 30 e7 84 3d 39 90 2e bd
       0.062963635 -0.020457232 0.06489408 -0.04261801
0001c0 5d 6b 3d 3d 40 77 75 bd a8 17 d1 3d 3f 26 c9 3d
       0.046244968 -0.05992818 0.1020959 0.09821748
0001d0 ba 6e e3 bd b9 6c de 3d 8f ef fc 3d 6f 34 d0 3c
       -0.11105104 0.10860581 0.1235038 0.025415627
0001e0 5e 67 0a 3e 8a e0 31 bc 0c 86 e5 3d d1 5e 1b 3d
       0.13515994 -0.010856757 0.11207208 0.03793222
0001f0 d0 c2 08 3d e4 83 4b 3d 16 19 5f bc 2d d1 23 bc
       0.033388913 0.049686328 -0.013616821 -0.009998602
000200 66 59 a2 bc 7e 62 5e 3d e1 eb 3c bc 1a 47 9d 3d
       -0.01981802 0.05429315 -0.011530847 0.07679577
000210 2d 1c 0f 3e dc 43 8c 3c b1 a8 6c bc fe 53 19 bd
       0.13975592 0.017122202 -0.014444516 -0.037433617
000220 9f 8f 93 3d 9b 51 28 3d 02 95 c6 3d 52 f9 9a 3c
       0.07205128 0.04109345 0.0969639 0.018917713
000230 f9 dd 29 bd bf 78 0f 3d b3 f4 7d bc 4d da f7 bc
       -0.041471455 0.03502726 -0.015500235 -0.030255461
000240 06 c6 8f bd 6d 3d cf 3c f5 21 cb 3d ee dc 0f bd
       -0.07020192 0.025297845 0.09918586 -0.035122804
000250 86 d0 0c 3e 60 46 c4 3b 41 9a 10 3d bb ea 1b 3c
       0.1375142 0.0059898347 0.035303358 0.009516413
000260 ac 39 5d 3d 06 91 f7 3d 64 fe fb bd 19 eb 5a 3d
       0.05401008 0.12088208 -0.123043805 0.053446863
000270 61 90 35 bc 96 63 62 bd 47 d0 6d 3d 06 f5 af 3b
       -0.011081786 -0.055270754 0.058059957 0.0053697852
000280 b0 c7 85 3c 25 5c ce 3d d0 3c d7 3d d8 90 cd 3d
       0.01633057 0.10076169 0.10509646 0.100373924
000290 01 7e 12 3d 07 8f f3 3d 6a 40 02 3e 54 a6 fb bc
       0.035764698 0.11892515 0.12719885 -0.03071896
0002a0 0e 2a e5 3e f4 a6 0e 3d 8c 2c 84 3d c7 64 d9 3d
       0.44758648 0.034827188 0.06453809 0.10614925
0002b0 1f e4 e4 3d d3 52 4b 3c d6 2e 01 bd 8f 32 5b 3d
       0.11176323 0.012409884 -0.031538807 0.053515013
0002c0 ab a4 45 3d db c1 38 bd 18 d1 7d 3e 5b e2 e4 3d
       0.048252743 -0.04510675 0.24786794 0.111759864
0002d0 dd 69 31 bd 4b 24 92 3d db 1c 1a bd 19 19 d2 3d
       -0.04331385 0.071358286 -0.037625175 0.10258693
0002e0 04 c7 47 bd e4 79 47 bd 41 8a 1b 3e ed 09 ab bb
       -0.04877378 -0.04870023 0.15189458 -0.005219689
0002f0 81 4b 8e bc a3 8f c8 3d 3a 6d 5d 3d ec 41 ef 3c
       -0.017369987 0.097930215 0.054059245 0.029206239
000300 c6 81 f6 3d c1 73 e4 3c e2 0e 46 bd 09 81 e5 3d
       0.12036471 0.027887227 -0.048354037 0.11206252
000310 07 22 22 bd e8 02 14 3e 6c 25 da bc fe 2f fc 3c
       -0.039583232 0.14454234 -0.026629172 0.030784603
000320 d4 a7 b7 bd 2b 0d b4 3c c9 20 86 bd d4 be 5d 3d
       -0.089675575 0.021978935 -0.06549222 0.054137066
000330 b8 a4 6d bd 2b 76 4b bd a8 3e ed 3c a5 27 83 bb
       -0.058018416 -0.04967324 0.02896054 -0.0040025287
000340 60 01 98 3d 3d 01 6a 3c 65 38 ed 3c 98 e3 3a 3d
       0.07422137 0.014282522 0.028957555 0.045627207
000350 85 12 6b 3a bb 70 77 3d 60 25 2b bd 42 50 b7 3c
       0.0008967298 0.060410243 -0.04178369 0.022377137
000360 f2 40 ab 3d 3d 64 b3 3d 21 ba 3b bd b2 bc 73 3d
       0.08361997 0.08759353 -0.045831803 0.059506126
000370 a9 70 a0 bd 87 a9 33 bd 84 ea fb 3c 56 65 95 3c
       -0.07833988 -0.043862846 0.030751474 0.018236797
000380 f0 e3 52 3d d1 05 25 3e 04 13 bc 3d bc 9c 42 3d
       0.05148691 0.161155 0.091833144 0.047512755
000390 7c a4 8b bd 91 9b c7 3d 22 53 d5 bd e5 3e cc 3c
       -0.06818482 0.09746469 -0.10416247 0.024932334
0003a0 11 e5 f1 3c 74 bb 67 3d 38 aa 0d 3d e3 c3 8d bd
       0.029528173 0.056575254 0.03458616 -0.06922128
0003b0 54 a7 d9 3d 99 36 4d 3d de 17 19 3d e3 57 11 3d
       0.106276184 0.050100897 0.037376277 0.035484206
0003c0 b1 d2 c3 3a 7f b6 ae bd cf b4 c8 bd af a0 0f 3c
       0.001494011 -0.08530902 -0.098001115 0.008766337
0003d0 ab 0c da 3d e7 3f 75 3d 04 9c 0f be 97 ce 91 3d
       0.106469475 0.059875395 -0.14024359 0.07119482
0003e0 4a 68 09 be 0d 1d c4 bc 51 a2 df 3c c5 24 14 3d
       -0.1341869 -0.023939634 0.027299078 0.03616788
0003f0 bb 51 98 bd cc 06 09 3d e6 83 a1 bd 2a 5d 88 bd
       -0.07437464 0.033453748 -0.07886486 -0.06658395

gru.bias_hh_l0 f4 [768]
000000 be de 68 bd be a4 32 3d dc 43 f1 3c d0 77 84 3c
       -0.05685305 0.04361414 0.029451303 0.016170412
000010 16 ca e0 3d 3a 00 73 3d 46 e6 a6 3d 66 a3 26 3d
       0.10976045 0.059326388 0.0814939 0.040683173
000020 59 5d c9 3d 34 af 73 3d 33 2b 32 3d 6f 1e d6 bd
       0.09832258 0.05949326 0.04349823 -0.104550235
000030 7c 9a 98 bd 1c 1e c5 3d 82 eb fb 3d 3e ce c4 3c
       -0.074513406 0.096248835 0.12300779 0.024024125
000040 27 2a f0 3d df 4a f1 3b de a1 c9 3d 33 f0 58 3d
       0.1172679 0.0073636617 0.09845327 0.052963447
000050 3d 66 30 bd ee 8b b5 3d e3 1a 46 3c 5c 79 7f 3d
       -0.043066252 0.0886458 0.012091371 0.062371597
000060 4e f5 bd 3d e8 be 53 bc 58 de 25 bd 02 25 e6 3d
       0.09275304 -0.012923934 -0.040495247 0.112375274
000070 ad a3 89 3d d0 b7 d8 3d 0e c8 a0 3d 83 04 cd bc
       0.06720672 0.105819345 0.078506574 -0.025026565
000080 57 1a db 3d 02 11 a6 3d 88 c4 df 3c 88 fd a3 3d
       0.10698383 0.08108713 0.027315393 0.080073416
000090 3c 49 dd 3d 1c d9 dd bc ef 17 88 3c 5d e1 37 3d
       0.10804984 -0.027081065 0.016612975 0.044892658
0000a0 4d f1 ac bc 6d e2 01 3e 9a e4 84 3e d9 32 26 3d
       -0.021111155 0.12684031 0.2595566 0.040575836
0000b0 d3 70 47 bd 83 c0 23 3d 77 5b 21 bb f2 8b 80 3c
       -0.048691582 0.039978515 -0.0024621168 0.015691731
0000c0 86 02 ec 3c b8 8b 11 3d 86 fd f0 bc ed 5f 77 3b
       0.028809797 0.035533637 -0.029417764 0.0037746385
0000d0 08 a9 36 3d 13 db 41 3d b1 8e db ba 22 5d 9b bd
       0.044594795 0.047328066 -0.0016750899 -0.07586123
0000e0 a6 f3 f3 bc d2 c1 f5 3d 1a 7e 99 bb 44 05 e3 3b
       -0.029779267 0.11999859 -0.004684222 0.006928118
0000f0 a0 3f ff 3c e3 75 bf bb bc 5a fe 3d d0 d9 87 bc
       0.031158268 -0.0058429106 0.1241965 -0.016583353
000100 09 13 e6 3d 1c c1 cd bc f6 0f 43 bc 6a 4e 44 3e
       0.112340994 -0.025116496 -0.011905661 0.19170538
000110 d6 98 0a bd 72 fb 54 3c 62 64 2b bd fa 14 c9 bd
       -0.033837162 0.012999402 -0.04184378 -0.09818454
000120 c8 8c 34 3d 42 73 47 3c f8 f7 1d 3d 48 f6 5a bb
       0.044079572 0.012173476 0.03856656 -0.0033410955
000130 b4 41 c0 3d 9a 66 21 bd 5b 10 98 3d f5 58 62 bc
       0.09387532 -0.03940449 0.074249946 -0.013815154
000140 44 66 4b 3d d7 f2 f9 3c b8 2c 96 3d dc e6 e5 bc
       0.049658075 0.030511303 0.07332748 -0.028064184
000150 e3 aa b0 3d c3 fd 65 3d 11 6e 68 bd 58 81 b5 bd
       0.08626344 0.05615021 -0.056745593 -0.08862561
000160 8d c6 3c 3d f6 c0 29 3c 1a 59 65 be 26 23 fa bd
       0.04608779 0.010360947 -0.22397271 -0.12213735
000170 06 5c c3 3c 61 50 5e 3d 6a d1 46 3d f3 20 44 3d
       0.023847591 0.054275874 0.048539557 0.047882985
000180 00 c1 bf bd e6 cd 53 bd bc 27 a1 3c 7e 2e 73 bd
       -0.09362984 -0.051710032 0.019672267 -0.05937051
000190 e0 29 c7 3c ff 72 a3 3d 96 4e 1d bd fc ec b3 3d
       0.02431196 0.07980918 -0.038405024 0.087854356
0001a0 85 53 02 3e e6 86 f9 3d bd 11 a3 bb 47 9a af 3d
       0.12727173 0.12183933 -0.00497648 0.08574348
0001b0 00 00 b6 3d 2d 82 91 bc 7d 83 0b bd 88 5a 50 3d
       0.08886719 -0.017762268 -0.034060944 0.050867587
0001c0 80 5b 08 3d 62 87 fb bb ed 1b 4b bb 49 0a 8b 3c
       0.033290386 -0.007676051 -0.0030991987 0.016972678
0001d0 bc 22 3c bd 22 59 40 3d bf ae 69 3d 3c b9 16 bc
       -0.045931563 0.046960004 0.057051416 -0.009199437
0001e0 ec e6 e9 3d 1b 3a 1d bd 4c 68 9b 3d 3b f0 46 bd
       0.11420998 -0.03838549 0.075882524 -0.048568945
0001f0 c7 e7 5b 3d 87 24 a5 3d a8 80 8e bc 00 08 01 3d
       0.053687837 0.08063608 -0.017395332 0.03150177
000200 bd c8 0d bd 8b 0e 25 3e 03 d7 b9 bd 20 8e eb 3d
       -0.034615267 0.16118829 -0.09074213 0.115017176
000210 51 53 16 3e e6 2e 51 3d 1a 19 86 bb ed a6 27 bd
       0.1468022 0.051070116 -0.004092348 -0.040930677
000220 0d 20 a4 3d 54 33 86 3c 59 a9 70 3d 14 91 be 3d
       0.08013926 0.016381897 0.058755253 0.09305015
000230 a5 78 25 3d fc 4f ad 3c 89 e0 80 3b 99 bf 75 bd
       0.04039826 0.021156304 0.0039330167 -0.059997175
000240 92 e9 1c bd 30 5b 17 39 81 13 11 3e 0e 00 39 bd
       -0.038308688 0.00014434452 0.14167596 -0.045166068
000250 60 f9 2a 3e 24 8d 50 3d 02 bb f3 3d 3f a5 8d 3c
       0.16696692 0.050915852 0.11900903 0.01729071
000260 73 63 cc 3c 0b 68 d0 3d ba 5e d0 bd f3 d2 d5 3d
       0.024949765 0.101760946 -0.10174318 0.10440626
000270 84 b9 8b 3d 0e d0 06 bd 1b f2 85 3c 4e 12 1c bd
       0.06822494 -0.03291326 0.016350796 -0.038103394
000280 5c 5b 14 3d 8b 3c 99 3d 41 9a 0d 3d 69 1b f2 3d
       0.03621994 0.07482251 0.034570936 0.11821634
000290 cb b6 e4 3c 77 9a 95 3d 4a 4e 18 3e c4 c7 c2 bd
       0.027919194 0.073048525 0.14873615 -0.095107585
0002a0 18 a1 d7 3e 2f 75 67 bc 94 83 29 3e e3 6e 06 3e
       0.42115092 -0.01412706 0.165541 0.13128237
0002b0 58 55 bb 3d 22 67 1e 3d 80 2d 19 bd 4f 5f f2 3c
       0.091471374 0.038672574 -0.037396908 0.029586462
0002c0 31 72 a0 3c 06 c7 8f bd fb 22 1f 3e b8 cf 29 3e
       0.0195857 -0.070203826 0.15540688 0.16583145
0002d0 03 1c 2a 3c f4 45 49 3d 0b 74 49 3d bb 8d 72 bc
       0.010382655 0.049138978 0.049182933 -0.014804299
0002e0 58 cd f1 bc 30 59 4a 3d e8 8e a9 3d 48 c2 c2 3d
       -0.02951686 0.049401462 0.0827921 0.095097125
0002f0 fa e3 32 bc 42 c8 80 3d b4 fb 32 3d 08 76 4d 3c
       -0.010918612 0.06288196 0.043697074 0.012540348
000300 ce 5a d5 3d c1 84 e6 3c 50 08 e0 bd 4b 07 55 3d
       0.1041771 0.028139474 -0.109390855 0.05200891
000310 75 d9 bf bc f7 1d 56 3d 38 e9 2e 3d 16 d5 ea 3c
       -0.023419121 0.05227467 0.042702883 0.02866606
000320 3c 05 71 b9 99 1b 4f 3d 14 25 84 bc b4 cf 37 3d
       -0.00022985501 0.05056343 -0.016130961 0.044875816
000330 78 89 dc 3c b6 04 28 3b 94 53 4e bd 66 c3 55 bd
       0.026921019 0.0025637574 -0.050372675 -0.0521883
000340 b6 bf f9 3d 37 87 c2 3b c6 68 6c 3d 2a 0d b8 3d
       0.12194769 0.005936529 0.057717107 0.08986886
000350 0f f9 cf bd e6 f3 fd 3d 18 f4 53 3c 6d 33 ea 3d
       -0.10154926 0.124000356 0.012936614 0.1143559
000360 d6 04 30 3d bd aa 1e 3d 27 28 2a bd 31 05 c4 3c
       0.042973362 0.038737047 -0.0415422 0.023928257
000370 9d b9 c1 bc 9a d5 c5 bd 24 59 91 bc 5c 94 5f 3d
       -0.023648078 -0.09659882 -0.0177427 0.054584846
000380 38 e1 b1 3b 67 ed 22 3e d2 d0 c5 3b 3c 7f 81 3d
       0.0054284595 0.15910874 0.006036856 0.06323096
000390 66 2c ad bd 0c 7e 2f 3d cb aa f2 bd 50 7e 5e 3d
       -0.08455734 0.042844817 -0.118489824 0.05431968
0003a0 6b ca 0a bc 05 8d cc 3d 08 31 9e 3d ec ea 23 bd
       -0.008471112 0.09987835 0.07724196 -0.04001896
0003b0 33 a0 78 3d 65 d3 cb 3c 38 a4 53 3d 4f 34 67 3d
       0.060699653 0.024881074 0.051670283 0.05644637
0003c0 74 96 a6 bc 5a 70 9a bd 59 76 f5 bd 81 c7 ba bc
       -0.020335414 -0.075409606 -0.11985464 -0.022800209
0003d0 90 e5 1b 3d e6 6c 00 3d 8a 51 2d be 0b 26 4a 3d
       0.038060725 0.031353854 -0.16925636 0.049352687
0003e0 42 e1 b3 bd 86 e5 87 bd 24 ed d3 3d 65 d7 05 3d
       -0.08783199 -0.06635575 0.10347965 0.03267612
0003f0 f4 72 ba bd 81 f7 22 3c 52 b3 d6 bc 91 a0 2f bd
       -0.09103957 0.009946705 -0.026208553 -0.042877737

fc.weight f4 [2, 256]
000000 d7 42 1c 40 0c 03 69 3d 17 8e 1f 40 1f 25 fc ba
       2.4415796 0.05688767 2.4930475 -0.0019237137
000010 88 ad 42 c0 fb 92 1f c0 8f d0 22 3b 2e f8 3f c0
       -3.0418415 -2.493346 0.002484355 -2.9995227
000020 c9 12 19 40 a4 6a 1e c0 99 e7 84 3d ab c8 36 40
       2.3917716 -2.4752588 0.06489486 2.8559978
000030 57 67 29 40 98 40 31 c0 2a 19 1e c0 37 24 99 3c
       2.6469324 -2.7695675 -2.470286 0.018694026
000040 8a 1b 1f 40 d0 c9 ac 3d 04 db 1e 40 3f 5b 1f 40
       2.4860559 0.0843693 2.4821177 2.4899442
000050 60 85 1b 40 c9 ed 1c 40 ec e9 3a c0 f1 42 69 bc
       2.4300156 2.4520133 -2.9205275 -0.0142371515
000060 95 2d 23 c0 b9 37 2d c0 e1 ca 2c bd a0 f5 1f 40
       -2.549657 -2.706526 -0.042185668 2.4993668
000070 c9 1a 1f c0 74 5e 1d c0 90 4b 37 3c a3 0a 3d 40
       -2.4860098 -2.45889 0.011187449 2.9537742
000080 dd 94 46 c0 f2 6d 56 c0 f7 48 7c 3d 7c d3 1e c0
       -3.102836 -3.3504605 0.061593022 -2.481658
000090 4f ad 3d c0 c4 cb 1d 40 cd b0 f2 3b 74 9a 4f c0
       -2.963703 2.4655619 0.00740633 -3.243802
0000a0 cd 3e 1a c0 b4 ed 49 40 95 ea 2e 40 08 b7 20 c0
       -2.410083 3.1551332 2.7330678 -2.5111713
0000b0 5c 50 3b c0 65 73 17 c0 f5 5e 19 c0 d2 37 1f c0
       -2.9267797 -2.3664181 -2.3964207 -2.487782
0000c0 ff 72 45 40 25 c4 24 c0 ac 4e 21 c0 53 32 ff 40
       3.0851438 -2.5744717 -2.5204268 7.974893
0000d0 90 6d 40 40 8f 2f 30 c0 92 61 30 40 b2 46 29 c0
       3.0066872 -2.7529027 2.7559552 -2.64494
0000e0 52 33 22 c0 bf e2 2f 40 a4 dd 21 40 54 65 1c 40
       -2.5343823 2.7482145 2.5291529 2.4436846
0000f0 87 60 1f bc a5 96 1d 40 72 89 1e 40 ef 56 19 40
       -0.009727604 2.4623196 2.477139 2.395931
000100 c6 cf 20 bd a9 67 24 c0 02 76 1c c0 e9 23 3d 40
       -0.03926065 -2.568827 -2.4447026 2.9553168
000110 8c 6c 1e 40 08 aa 3a 3d 3c 43 1d 40 f5 1f 3e 40
       2.4753752 0.04557231 2.4572287 2.9707005
000120 04 c3 1d 40 c7 4f 1e 40 55 0c 1a 40 aa ca 24 40
       2.4650278 2.4736192 2.4070027 2.5748696
000130 5d c6 05 40 7d 8b 1e c0 36 b1 1f c0 72 5c 22 c0
       2.0902321 -2.4772637 -2.495191 -2.5368924
000140 d4 0e 23 40 d0 bb 1e c0 e9 9b 22 40 ff 4d a6 3d
       2.54778 -2.4802132 2.540766 0.08120345
000150 4d 52 19 40 e3 1b 2c c0 e6 e5 1a 3c 30 50 20 c0
       2.3956482 -2.689202 0.009454226 -2.5048943
000160 83 9d 22 40 ba 18 1c 40 29 65 30 c0 05 9a 04 41
       2.5408638 2.4390092 -2.7561743 8.287602
000170 e7 c3 fe bc ce 77 1e c0 8e b3 a2 bd 20 8e 29 40
       -0.031099273 -2.4760623 -0.079444036 2.6492996
000180 b7 69 1f 40 89 40 1b 40 ab 71 22 c0 9b a3 4a bd
       2.4908273 2.425814 -2.5381877 -0.049472433
000190 16 15 1c 40 a2 74 62 3d d2 d1 1d 40 79 9d 1c c0
       2.438787 0.05528701 2.4659314 -2.4471114
0001a0 fa 8b 14 3d 2e fd 1f 40 ec 62 3b 40 cd c9 43 c0
       0.036266305 2.4998279 2.9279127 -3.059192
0001b0 bf 20 26 40 b6 40 19 c0 61 35 2a 40 1f 8b 1a c0
       2.5957487 -2.3945746 2.659508 -2.4147413
0001c0 cd 5e 1e c0 06 92 20 3d 60 62 3f 40 77 93 1b c0
       -2.4745362 0.03920176 2.9903793 -2.4308755
0001d0 8f 98 1f bc ee 58 2c c0 1b da 46 40 5a dc 1d c0
       -0.009740963 -2.6929278 3.107062 -2.4665742
0001e0 5e d4 1f 40 b6 7b b1 40 e4 c3 1b c0 80 73 1f c0
       2.4973369 5.5463514 -2.4338312 -2.4914246
0001f0 4f a7 1c 3d e0 6d 1f 40 50 0c 41 3d b8 11 23 40
       0.038245495 2.4910812 0.047130883 2.5479565
000200 66 1f 22 40 ae ca 43 40 48 1e 2a c0 a1 17 21 c0
       2.5331664 3.0592456 -2.6580982 -2.5170672
000210 26 8b 20 40 5c 1d 39 c0 c6 b9 19 40 eb a4 c5 3c
       2.508493 -2.892417 2.4019637 0.02412649
000220 c0 fe 1f 40 19 6b 26 c0 4b d7 1c 40 99 84 1b c0
       2.4999237 -2.6002867 2.4506404 -2.429968
000230 27 62 25 40 e0 e6 21 c0 69 00 1f c0 b7 94 1b c0
       2.5841157 -2.5297165 -2.4844 -2.4309518
000240 b7 f7 23 c0 4d 3c 46 40 11 83 45 40 75 cf 22 40
       -2.5619943 3.0974305 3.0861247 2.5439122
000250 b8 3e 40 c0 31 9b 6c 3d 45 46 1c 40 88 a0 1c c0
       -3.003828 0.05776519 2.441789 -2.447298
000260 f7 af 38 40 4d a6 4b c0 b0 16 20 c0 44 08 34 c0
       2.88574 -3.1820252 -2.5013847 -2.8130045
000270 dc 79 25 c0 71 12 1e c0 4c 1a 1e c0 9f e6 1b 40
       -2.5855627 -2.4698756 -2.470355 2.435951
000280 bd 66 20 c0 35 d9 fe bf 6b 28 1e c0 26 e0 1c 40
       -2.5062706 -1.9910036 -2.471217 2.451181
000290 d8 76 1f 40 b8 21 4f 40 50 bb 1c 40 d0 3d 49 40
       2.4916286 3.236433 2.4489326 3.1443977
0002a0 d9 a6 17 c0 eb 45 27 c0 75 76 23 40 20 85 1d c0
       -2.3695586 -2.6136425 2.554105 -2.4612503
0002b0 e5 b0 20 40 f8 18 2f bd 00 dc 1f 40 89 59 20 c0
       2.5107968 -0.04274842 2.4978027 -2.5054648
0002c0 28 a6 21 40 03 38 3a bd 1c aa 3c c0 82 a6 51 40
       2.5257664 -0.045463573 -2.9478827 3.2757878
0002d0 17 02 10 41 3a e1 37 40 52 36 21 40 b5 7d 22 c0
       9.00051 2.8731217 2.5189404 -2.5389225
0002e0 95 ef 42 c0 7f 2c 21 40 dd 27 3b c0 cb d2 0e bb
       -3.045873 2.5183408 -2.924308 -0.0021793123
0002f0 8c a3 33 c0 c9 4c 1c c0 43 bb 21 c0 b7 a2 2a 40
       -2.806857 -2.4421866 -2.5270545 2.6661813
000300 a7 67 1f 40 12 66 23 40 18 e0 3a 40 2a ef 1c 40
       2.4907014 2.5531049 2.9199276 2.4520974
000310 6d d8 f0 3d db 57 17 c0 c1 ba 1e 40 d6 5a 1b 40
       0.1176003 -2.3647373 2.4801486 2.4274192
000320 44 8e 1a 40 90 27 23 c0 1c 83 19 c0 12 b5 1c 40
       2.4149332 -2.5492897 -2.3986273 2.4485517
000330 b6 1e 24 c0 92 ee 1c c0 77 be 1e 40 fe f3 1b 40
       -2.5643744 -2.4520612 2.480375 2.436767
000340 88 2b 1a c0 87 24 1e 40 8b 79 40 c0 d9 35 20 c0
       -2.408907 2.4709795 -3.0074184 -2.5032866
000350 72 c7 1c c0 e8 1d 1e c0 c0 27 c7 3b f1 54 93 bc
       -2.4496732 -2.4705753 0.0060777366 -0.01798484
000360 a2 61 20 c0 47 67 38 c0 db 5e 22 40 18 d1 1f c0
       -2.505959 -2.8813035 2.5370395 -2.497137
000370 91 47 20 c0 31 19 1c 40 58 27 1c c0 0c 51 c7 c0
       -2.504368 2.4390376 -2.4399014 -6.2286434
000380 9c 65 1f c0 1d 51 1c 40 4a 69 1f c0 fa 0c 1f 40
       -2.4905767 2.4424508 -2.4908013 2.485167
000390 e6 dc 2e c0 fc e4 1d 40 0c 4e 1f c0 7d 82 1d 40
       -2.7322326 2.467101 -2.4891386 2.4610894
0003a0 f9 8f 26 40 6d be 1c c0 10 3c 22 c0 4c 13 1e 40
       2.6025374 -2.4491227 -2.534916 2.4699278
0003b0 e7 da 64 40 96 43 4e bd 77 94 71 bd 88 60 42 40
       3.5758607 -0.050357424 -0.058979478 3.0371418
0003c0 de 8c 35 40 de 96 1a 40 0b 3d 23 c0 17 c2 21 c0
       2.8367229 2.4154582 -2.5506008 -2.5274713
0003d0 e8 06 05 c1 e9 0e 17 c0 2c 5a 19 40 b5 e4 01 c0
       -8.314186 -2.360285 2.3961287 -2.0295842
0003e0 b9 61 47 40 b2 6b 1d 40 01 bc 1a c0 80 57 14 c0
       3.1153395 2.4596982 -2.4177248 -2.3178406
0003f0 4f c8 08 3d 99 26 1b c0 bd 0a be c0 da c5 22 40
       0.033394154 -2.4242308 -5.938811 2.543326

fc.bias f4 [2]
000000 f1 d2 1d 40 c3 bd da 3f
       2.4659998 1.7089161
